db/model_weights.pth (torch, 440519 bytes, 6 tensors)

weight f4 [128, 784]
0	0xbc88556f	-0.0166423
1	0x3ccd8dae	0.025091972
2	0xbcead884	-0.028667696
3	0x3bd3929d	0.0064566866
4	0xbbace663	-0.0052764877
5	0xbce469a2	-0.0278824
6	0x3b9d6e0b	0.004804378
7	0xbc4d35a5	-0.012524997
8	0xbcbee99d	-0.023304755
9	0xbbdda830	-0.0067644343
10	0xbcfc34b0	-0.030786842
11	0x3cd81290	0.026376039
12	0xbcb7b30e	-0.022424247
13	0xbcafe10d	-0.021469617
14	0x3aa9cf5e	0.0012955477
15	0xbc18ca8f	-0.0093256375
16	0x3c4d24e4	0.012521002
17	0xbce81fe2	-0.028335515
18	0x3c3aac0f	0.011393561
19	0xbcb2de4b	-0.021834513
20	0xb9a71edf	-0.00031875723
21	0xbc864d89	-0.016394394
22	0x3c56539e	0.013081459
23	0xbcd642bd	-0.02615487
24	0x3c1baf69	0.00950227
25	0x3ba9fa17	0.0051872837
26	0x3c9e6ddb	0.019339493
27	0xbccb55e2	-0.024821226
28	0xbd161609	-0.036642108
29	0x3b8cc1fa	0.0042955847
30	0xbd25be5a	-0.040464737
31	0xbd017234	-0.031603053
32	0x3cdba826	0.026813578
33	0x3beaca8d	0.007165259
34	0x3ca6e413	0.020372426
35	0xbcd53a5f	-0.02602881
36	0xbd05fb75	-0.03271051
37	0x3c0a2192	0.008430855
38	0xbc91b4a4	-0.017786331
39	0x3b8d8a8f	0.004319496
40	0xbd22a4c9	-0.039707933
41	0xbc812275	-0.0157635
42	0xbd1f50cc	-0.038895413
43	0xbd0986b2	-0.03357572
44	0xbc6fda15	-0.014639397
45	0xbc29236a	-0.010323385
46	0xbb442e2c	-0.0029934747
47	0x3ba11c06	0.0049166707
48	0xbd108792	-0.03528554
49	0xbc797dc6	-0.015227741
50	0x3cc43ea8	0.023955658
51	0x3bc48e85	0.005998435
52	0x3aae18b2	0.0013282506
53	0xbba5c247	-0.00505856
54	0x3c55055d	0.013001767
55	0xbc3e27eb	-0.011606197
56	0xbd31221f	-0.04324543
57	0x3c72dbdf	0.014822929
58	0xbd27dd0e	-0.0409823
59	0x3b11e305	0.0022260558
60	0x3c73fe1d	0.014892128
61	0xbae9a6f8	-0.001782625
62	0xbc63630c	-0.013878595
63	0xbbe6d40a	-0.00704432
64	0x3bea5ae9	0.0071519506
65	0xbceba73e	-0.02876627
66	0xbc95dad3	-0.01829282
67	0xbb51a913	-0.0031991645
68	0xbd2b9c46	-0.04189708
69	0xbd0b954a	-0.03407792
70	0xbc4cb4e8	-0.012494303
71	0xbd49a2e3	-0.049227607
72	0x3b064382	0.0020487015
73	0xbd084563	-0.033269297
74	0x3ca3dd06	0.020002853
75	0xba7b1b1e	-0.0009578931
76	0xbd2d2d2c	-0.042279407
77	0x3c2671b3	0.010158944
78	0x3caf2b56	0.021382969
79	0xbd38a1e4	-0.045076266
80	0x3ca5c84e	0.020237114
81	0x3cde4631	0.02713308
82	0x3aa7526e	0.0012765655
83	0xbc000cfe	-0.007815598
84	0xbd1b851a	-0.037968732
85	0xbc9376cc	-0.018000983
86	0xbd25a408	-0.040439636
87	0x3c9e63cb	0.019334694
88	0xbbed1c78	-0.0072360598
89	0xbbe1a2a1	-0.006885842
90	0xbd1aa8e3	-0.03775872
91	0x3ce0484f	0.02737823
92	0x3b477903	0.003043712
93	0x3cea53a0	0.028604329
94	0xbbffe552	-0.0078093195
95	0x3cddcb6e	0.027074542
96	0x3c368105	0.011139159
97	0x3c9aeba0	0.018911183
98	0x3d28acdd	0.04118048
99	0x3d3812ef	0.04493993
100	0x3bb01462	0.0053735236
101	0x3d0a9335	0.033831794
102	0x3d046c11	0.032329623
103	0xbccb2067	-0.024795724
104	0x3bb1688a	0.0054140734
105	0x3b170b97	0.002304768
106	0xbbac7cb3	-0.0052638887
107	0x3a87cb02	0.0010360184
108	0x3cad4d5c	0.021155052
109	0x3b95808f	0.0045624445
110	0xbcbf6473	-0.023363328
111	0xbd10e8a1	-0.035378102
112	0xbd02aec0	-0.031904936
113	0xb98e0fa3	-0.00027096
114	0xbcd90d0b	-0.026495477
115	0xbcc74ddc	-0.024329118
116	0x3c1a01b5	0.009399821
117	0xbcdf616e	-0.027268138
118	0xbbe9ce00	-0.007135153
119	0xbc1c32ae	-0.009533567
120	0x3d00d072	0.03144879
121	0x3d2180fd	0.039429653
122	0x3b576737	0.0032867917
123	0x3d4d1924	0.050072804
124	0x3d5a8e32	0.053358264
125	0x3b68bafa	0.0035511837
126	0xbb9b979f	-0.0047482993
127	0x3d3ad100	0.045609474
128	0x3c4ff8f9	0.012693637
129	0x3d14b5f7	0.036306348
130	0xbc8f44ad	-0.017488802
131	0xbd113e91	-0.03546006
132	0xbd085470	-0.03328365
133	0xbbfe2207	-0.007755521
134	0x3c348e4c	0.011020254
135	0xbbe2d592	-0.006922432
136	0x3c56823e	0.013092576
137	0xbce6a256	-0.02815358
138	0x3cbd473c	0.023105256
139	0x3c969897	0.018383307
140	0xbc3dcc86	-0.011584407
141	0x3ca6423b	0.020295253
142	0xba4fe72c	-0.00079308706
143	0xbcf764ad	-0.030199373
144	0xbd004380	-0.031314373
145	0x3a2abd12	0.0006513159
146	0xbd4dd81a	-0.05025492
147	0xbcbc4765	-0.022983262
148	0xbb142bac	-0.0022609038
149	0xbccae2c2	-0.02476633
150	0x3d2308a1	0.03980315
151	0xbcdfb6e5	-0.02730889
152	0xbc5e1240	-0.013554156
153	0xbbbf8bbf	-0.0058455165
154	0xbc42b7e7	-0.011884666
155	0xbcc1bcdc	-0.023649625
156	0x3c95f416	0.018304866
157	0x3d3ff224	0.046861783
158	0x3d5fadfa	0.054609276
159	0xbc112d38	-0.008860879
160	0x3ca67973	0.020321583
161	0x3d06a605	0.032873172
162	0x39a2f7f2	0.00031083782
163	0xbc72d381	-0.014820934
164	0x3b8dd030	0.0043277964
165	0x3a2b92d2	0.000654501
166	0xbae12ae4	-0.001717892
167	0x3c1d713b	0.009609516
168	0x3c8fa2e1	0.017533721
169	0xbce9ed45	-0.028555522
170	0xbcf2765a	-0.02959745
171	0x3bf8fa82	0.0075982222
172	0x3cdb20b7	0.026748998
173	0x3c3e2c44	0.011607233
174	0xbcbb2b49	-0.022847788
175	0xbd2b5488	-0.041828662
176	0x3c930488	0.017946497
177	0xbd4588dc	-0.048226222
178	0xbd86d5b5	-0.0658373
179	0xbdc18966	-0.09450035
180	0xbc6ef4a8	-0.014584698
181	0xbc7bca6c	-0.015368085
182	0xbc84c6e2	-0.016208116
183	0xbcf97c67	-0.030454827
184	0x3cb0b169	0.02156897
185	0x3d7d2304	0.06180097
186	0x3d8579cd	0.06517372
187	0x3d81ac83	0.06331732
188	0x3d2863a7	0.04111066
189	0x3c3e3673	0.011609661
190	0x3d300ce6	0.04298105
191	0xbc6e0c30	-0.014529273
192	0xbc36f9cc	-0.011167955
193	0x3cbb8178	0.022888884
194	0xbc74b473	-0.014935601
195	0xbbf9aa4c	-0.007619178
196	0xbd2803bb	-0.041019183
197	0xbbf2cc8e	-0.0074096387
198	0xbcaf4bb3	-0.0213984
199	0xbae8d65d	-0.001776408
200	0x3c9c5d4b	0.019087454
201	0x3c4a9583	0.012364748
202	0xbc695c0c	-0.014243137
203	0xbcc6e2d2	-0.024278078
204	0xbd34ab0c	-0.044108436
205	0xbd55137c	-0.052020535
206	0xbd882a29	-0.066486664
207	0xbd774471	-0.060368005
208	0xbda972eb	-0.08273872
209	0xbc4f16a6	-0.012639677
210	0x3c859acc	0.016309164
211	0x398c62e8	0.00026776572
212	0x3d6073da	0.054797985
213	0x3d1d985d	0.038475383
214	0x3d7f4421	0.062320832
215	0x3d210d09	0.039319072
216	0x3d89aca3	0.06722381
217	0x3d40d24a	0.047075547
218	0x3d6f7629	0.058462296
219	0x3d498ee0	0.04920852
220	0x3c7e1d26	0.015509879
221	0xbc40d02f	-0.011768385
222	0xbd261cc3	-0.040554773
223	0x3c9647f5	0.018344859
224	0x3b8a0428	0.0042119212
225	0xbced2c19	-0.028951691
226	0x3c0909ce	0.008364154
227	0xbc889526	-0.016672682
228	0xbd189427	-0.037250664
229	0x3cbb2379	0.022844063
230	0x3bab7e43	0.0052335574
231	0xbc1942eb	-0.009354333
232	0xbccfef64	-0.025382705
233	0x3c8546d0	0.016269118
234	0x3c2b0a5c	0.010439482
235	0xbca37498	-0.019953057
236	0xbb0d3cd5	-0.0021551151
237	0x3b9516a5	0.0045498186
238	0xbc8e22f1	-0.017350646
239	0xbd0f1e81	-0.0349412
240	0x3c932113	0.017960107
241	0x3cf6413a	0.0300604
242	0x3d138c03	0.036022197
243	0x3cfe1559	0.031016039
244	0x3db8a007	0.09014898
245	0x3ceb19ab	0.028698763
246	0x3d8621b3	0.06549396
247	0x3bb9d61c	0.005671276
248	0xbcce343c	-0.025171392
249	0x3cd0abae	0.025472488
250	0x3c85a802	0.016315464
251	0x3bb5e52c	0.005551001
252	0xbcfac107	-0.03060962
253	0x3c9015a2	0.01758844
254	0x3c8ab7fe	0.016933437
255	0xbcc6ac26	-0.024252009

bias f4 [128]
0	0xbcee4664	-0.0290863
1	0xbce14271	-0.027497502
2	0x3b2420a8	0.0025043879
3	0xbc37a49d	-0.01120868
4	0x3d6509da	0.0559176
5	0xbca12df7	-0.019675238
6	0x3c71dc45	0.014761989
7	0x3d9917d8	0.07475251
8	0xbd78dd03	-0.06075765
9	0x3d8aaf18	0.06771678
10	0x3d1f55c1	0.03890014
11	0xb94a9554	-0.0001931985
12	0xbd1a3aa7	-0.03765359
13	0x3d98b086	0.07455544
14	0x3d281c60	0.041042686
15	0x3d91f982	0.07127668
16	0x3c984bd8	0.018590853
17	0x3e05d7b5	0.13070567
18	0xbc046926	-0.00808171
19	0x3caf52a0	0.021401703
20	0x3de1b9b2	0.11021747
21	0x3cf49cd5	0.02985994
22	0x3d40950f	0.047017153
23	0xbb0d236d	-0.0021536008
24	0x3c9eb94a	0.019375462
25	0x3dcdd65e	0.10050653
26	0x3d42a525	0.047520775
27	0xbdf081fc	-0.117435426
28	0x3d43f05f	0.047836658
29	0xbbe8b568	-0.0071017034
30	0xbcb71fc4	-0.022354014
31	0xbd468935	-0.048470695
32	0x3ce3e921	0.027821125
33	0x3c3bac32	0.011454629
34	0xbd2e87e1	-0.042610053
35	0x3db2438f	0.08704292
36	0xbd13aa2b	-0.036050957
37	0x3c8d7218	0.017266318
38	0xbc6b37d4	-0.014356572
39	0x3db439bf	0.08800077
40	0xbd9a30f3	-0.075288676
41	0xbd47d098	-0.048782915
42	0x3d5fad1d	0.054608453
43	0x3cf1b7c1	0.029506566
44	0x3be78ede	0.0070665916
45	0xbd9edf41	-0.07757426
46	0x3de41659	0.11137075
47	0x3cb448c5	0.022007355
48	0x3cc65ea0	0.024215043
49	0xbd912f61	-0.07089115
50	0xbd0eb6af	-0.03484219
51	0x3d098bbd	0.03358053
52	0x3d915329	0.0709594
53	0xbae538b8	-0.0017488217
54	0x3e1e7451	0.15474059
55	0x3d9281f8	0.07153696
56	0x3d387f44	0.045043245
57	0x3c00bc5d	0.007857409
58	0xbb9a9056	-0.004716913
59	0xbd6a89e0	-0.057260394
60	0x3bf7762f	0.0075519304
61	0x3d955671	0.07291878
62	0x3c4fa14c	0.0126727335
63	0xbc8e0527	-0.017336441
64	0xbc112736	-0.008859446
65	0x3d828cc9	0.06374509
66	0x3bc51a38	0.0060150884
67	0x3daaa263	0.08331754
68	0x3d889c5f	0.066704504
69	0xbd997fba	-0.07495065
70	0xbccb15ca	-0.024790663
71	0x3d22078e	0.039557986
72	0x3d405306	0.046954177
73	0xbe152aac	-0.1456706
74	0x3b639ac7	0.0034729706
75	0x3d5dd620	0.054159284
76	0xbd45293f	-0.04813504
77	0x3c662d88	0.014048941
78	0x3d063a50	0.032770455
79	0xbc09e7cf	-0.008417084
80	0x3c953976	0.018215876
81	0x3dd07e15	0.10180298
82	0xbd4a0bde	-0.049327724
83	0x3c968b8c	0.018377088
84	0xbcfcd305	-0.03086234
85	0xbd258141	-0.04040647
86	0xbd03e5bb	-0.03220151
87	0xbd4c9c3d	-0.049953688
88	0x3c29f711	0.010373847
89	0x3cbe0824	0.023197241
90	0x3cd3d094	0.025856294
91	0xbd7521eb	-0.0598468
92	0x3d9831f4	0.07431403
93	0x3b27dabf	0.002561256
94	0xbcb10dc7	-0.021613015
95	0x3dde9f2b	0.10870203
96	0x3db21543	0.086954616
97	0xbd7b6d13	-0.06138332
98	0x3ab951d7	0.001413877
99	0xbda572b5	-0.08078519
100	0x3c688bb8	0.014193468
101	0xbdcd371f	-0.10020279
102	0xbc8186df	-0.015811382
103	0x3da8afe5	0.08236674
104	0x3e089e62	0.13341668
105	0x3da26c89	0.07930858
106	0xbd99fa5d	-0.07518456
107	0x3c029cef	0.007971986
108	0xbd091aa9	-0.03347269
109	0xbc928f7d	-0.017890686
110	0x3d2c80df	0.04211509
111	0xbb82200d	-0.003971106
112	0xbced4b7b	-0.028966656
113	0xbc42570c	-0.011861574
114	0xbd9c4e87	-0.076321654
115	0x3d44037c	0.047854885
116	0xbd9d056c	-0.0766705
117	0x3cf8d95c	0.030377083
118	0xbd3f6b71	-0.046733323
119	0x3ce9ba1f	0.028531132
120	0xbcc5884e	-0.024112847
121	0x3d9bcccd	0.07607422
122	0x3cb65906	0.022259247
123	0x3d92e897	0.07173269
124	0x3d2b2c8f	0.04179054
125	0x3da0cdd9	0.07851762
126	0xbdcefef5	-0.10107223
127	0x3dd4b200	0.10385513

weight f4 [64, 128]
0	0x3c79deaf	0.015250846
1	0x3d310cc7	0.043225076
2	0x3aba9b48	0.0014236951
3	0xbd35d44a	-0.044391908
4	0xbdf026a2	-0.117261186
5	0x3b94502d	0.0045261593
6	0x3e0c9133	0.13727264
7	0x3e23e640	0.16005802
8	0xbe4a0b3b	-0.19730847
9	0xbe344cd8	-0.17607439
10	0xbddfc6fc	-0.10926625
11	0x3cdfb25c	0.027306728
12	0x3d3c7ae5	0.04601564
13	0x3e11fee1	0.14257385
14	0x3e26eb71	0.16300751
15	0xbda722d4	-0.0816094
16	0x3c0efcd3	0.00872727
17	0x3dfdd968	0.123949826
18	0x3cbc8465	0.02301235
19	0xbdcff439	-0.10154004
20	0x3d537947	0.05162933
21	0xbd1bac90	-0.038006365
22	0xbd8b8c48	-0.06813866
23	0x3d469cbe	0.048489325
24	0x3e042eda	0.12908497
25	0x3c3072e0	0.010769576
26	0x3dca8114	0.09887901
27	0xbe35fdf1	-0.17772652
28	0xbcae35a8	-0.02126582
29	0x3df0652a	0.117380455
30	0x3c9ae4e4	0.018907972
31	0x3c3c3b56	0.011488756
32	0xbe0bccd4	-0.13652354
33	0x3d417d75	0.047238786
34	0x3cf395c0	0.029734492
35	0xbdf069c1	-0.11738921
36	0xbdcd2878	-0.100174844
37	0x3cca8514	0.02472166
38	0x3c8bd8ab	0.017071089
39	0x3d11aa30	0.035562694
40	0x3dad3a6d	0.084584095
41	0xbcefa25e	-0.029252227
42	0x3db3adf1	0.08773411
43	0x3cd8f538	0.026484117
44	0xbde30d07	-0.11086469
45	0xbdf3734b	-0.11887225
46	0x3e26c073	0.16284351
47	0x3d8c7874	0.06858912
48	0x3d0664c0	0.032810926
49	0xbe15cfe6	-0.14630088
50	0x3ccba09c	0.024856858
51	0x3e09d55c	0.13460296
52	0xbd45131b	-0.048113924
53	0x3de9cc4b	0.11415919
54	0x3dc8cc6b	0.09804615
55	0x3df1f68f	0.118146054
56	0xbc9bbb1b	-0.019010117
57	0x3cf0d387	0.02939774
58	0x3def0d84	0.116725
59	0xbe213324	-0.15742165
60	0xbdf9e5c6	-0.12202029
61	0xbd8d9add	-0.069143035
62	0xbd543792	-0.05181081
63	0x3d268504	0.040654197
64	0xbd741861	-0.059593562
65	0xbc3d6f9a	-0.011562252
66	0xbe621dfb	-0.22081749
67	0xbb4610d6	-0.0030222437
68	0x3e38feda	0.18065968
69	0xbe17e0f1	-0.14831902
70	0x3d65863b	0.056036215
71	0x3e3920d3	0.18078928
72	0x3cf26253	0.0295879
73	0xbd0632b8	-0.032763213
74	0xbdb36e8a	-0.08761318
75	0xbdc353dd	-0.0953748
76	0xbd90fdf0	-0.07079685
77	0xbcc25cf4	-0.023725964
78	0xbdd30eb4	-0.10305539
79	0x3df3f43a	0.11911817
80	0xbd6fb67c	-0.05852364
81	0xbd9f3ef1	-0.07775677
82	0xbdbd0ddf	-0.09231161
83	0x3cb7706e	0.022392478
84	0x3d91ee88	0.07125574
85	0x3e1368b1	0.14395405
86	0xbe7e9d4f	-0.24864696
87	0x3b9321ef	0.004490129
88	0xbdcd629d	-0.100285746
89	0x3da3a31b	0.07990094
90	0x3bb4cf77	0.005517896
91	0xbb98bb86	-0.0046610264
92	0xbde2e559	-0.11078901
93	0x3e0b8260	0.13623953
94	0xbd8f6ce4	-0.07003191
95	0x3e347683	0.17623334
96	0xbdc86a84	-0.09785941
97	0xbe11f33d	-0.14252944
98	0x3c8ae10e	0.016953018
99	0x3d056417	0.032566156
100	0x3de5c8de	0.11219953
101	0x3dcd32c4	0.100194484
102	0xbe461c1d	-0.19346662
103	0x3e478683	0.19484906
104	0xbd3fd0f6	-0.04683014
105	0xbd9becba	-0.076135114
106	0x3d8b5e45	0.0680509
107	0xbcf408de	-0.029789384
108	0xbdb31560	-0.08744311
109	0x3da3e822	0.0800326
110	0x3e038828	0.12844908
111	0xbde6040a	-0.11231239
112	0xbdfdfbbd	-0.12401531
113	0xbc4a8d81	-0.012362839
114	0xbd3d3959	-0.04619727
115	0xbd396b55	-0.045268375
116	0xbccef616	-0.025263827
117	0xbe23cffc	-0.15997308
118	0x3c5ed623	0.013600859
119	0x3e4de3b3	0.20106392
120	0xbd27c221	-0.04095662
121	0x3e0d94db	0.13826315
122	0x3d63c77d	0.05561017
123	0x3e291384	0.16511351
124	0xbd23d7bd	-0.040000666
125	0xbd1c9f10	-0.03823763
126	0xbe1c0e38	-0.15239799
127	0x3d809046	0.06277518
128	0x3e195fc9	0.14977945
129	0x3c4a91d5	0.012363871
130	0x3dd14624	0.102184564
131	0x3b34974f	0.0027556007
132	0x3dd5e7c1	0.10444594
133	0x3d56ba88	0.052423984
134	0xbdc9ba93	-0.09850039
135	0x3d38024b	0.04492406
136	0xbe2a1d04	-0.16612631
137	0x3d946eda	0.07247706
138	0xbe24d3c2	-0.16096404
139	0x3cddd7ce	0.027080443
140	0x3dcd7e79	0.10033888
141	0xbc8e8b72	-0.017400477
142	0xbde3d863	-0.11125257
143	0x3e415b4e	0.18882486
144	0xbced4f80	-0.028968573
145	0x3bd04ba2	0.0063566724
146	0xbe2fabce	-0.17155382
147	0x3db6edd0	0.08932078
148	0xbe55a184	-0.20862395
149	0x3dcd52b8	0.10025543
150	0x3da9cb82	0.08290769
151	0x3d0894c1	0.033344988
152	0xbcf31e63	-0.029677575
153	0xbc6d501c	-0.014484432
154	0x3d6841db	0.05670343
155	0x3e6269b2	0.22110632
156	0x3d2ff9fe	0.04296302
157	0x3d556735	0.05210038
158	0x3df32def	0.118739955
159	0xbd80364d	-0.06260357
160	0xbd8ba767	-0.06819039
161	0x3c7a21e1	0.015266866
162	0x3dcdbb28	0.10045463
163	0x3e3a45e0	0.18190718
164	0x3d60ee3a	0.05491469
165	0xbd8045c8	-0.0626331
166	0x3e4197b2	0.18905523
167	0x3c8ad25a	0.016946007
168	0x3e3f6093	0.18689184
169	0xbd06cc34	-0.032909587
170	0x3e078586	0.13234529
171	0x3cbfd4dd	0.02341693
172	0x3e387fca	0.18017498
173	0x3d41e005	0.047332782
174	0x3be9251d	0.00711502
175	0xbb84b312	-0.004049667
176	0xbdb89bc7	-0.09014087
177	0x3cbcfdcf	0.023070244
178	0xbd73723d	-0.059435118
179	0xbd91068b	-0.07081326
180	0x3e59b1d5	0.21259244
181	0x3b9fa339	0.0048717526
182	0xbdea7dad	-0.11449752
183	0xbdeccad3	-0.11562123
184	0x3da80407	0.08203893
185	0x3bf283f1	0.0074009825
186	0xbdd066ff	-0.10175895
187	0x3dbd1bfe	0.09233855
188	0x3e460278	0.19336879
189	0xbd54bd57	-0.05193838
190	0xbdaa2b7d	-0.08309076
191	0xbd59a166	-0.053132437
192	0xbe0e118c	-0.13873881
193	0x3b4eed3c	0.0031574508
194	0x3db4d173	0.08829012
195	0xbe3c43d3	-0.18385248
196	0xbe390adf	-0.18070553
197	0x3e0f2fd3	0.13983087
198	0x3d92ee33	0.07174339
199	0xbe2f6ecb	-0.17132108
200	0x3c72c02c	0.014816325
201	0x3dbb9342	0.091589466
202	0x3e37fabb	0.1796674
203	0xbc4cb242	-0.012493672
204	0xbd1b4d08	-0.03791526
205	0xbe856000	-0.26049805
206	0x3de08019	0.10961933
207	0xbde82f9e	-0.11337207
208	0x3b224166	0.0024758219
209	0x3d52c194	0.05145414
210	0x3cc8d763	0.024516767
211	0xbdb84321	-0.08997179
212	0x3ddfb411	0.10923017
213	0xbe1afaf4	-0.15134794
214	0x3d6d6cf1	0.057965223
215	0xbd837db3	-0.064204596
216	0x3d5d6ecd	0.054060746
217	0x3e43b321	0.19111301
218	0x3e0d97e0	0.13827467
219	0x3d195e5f	0.037443515
220	0xbe368bef	-0.17826818
221	0x3dd534e9	0.104104824
222	0x3db4cfb6	0.0882868
223	0x3db8c8a3	0.090226434
224	0x3de42bb1	0.11141146
225	0xbe3aba18	-0.18235052
226	0xbc97957f	-0.018503902
227	0xbe12688d	-0.14297695
228	0x3d94737e	0.07248591
229	0x3dc7ed91	0.09762109
230	0xbd65bfe8	-0.05609122
231	0x3d36a171	0.044587556
232	0xbd540edd	-0.051771987
233	0x3da7b6a4	0.08189133
234	0x3d293a0b	0.04131512
235	0xbdb97aa8	-0.09056598
236	0xbd60fd6f	-0.054929193
237	0x3dc5ea9c	0.09663889
238	0xbd5c2b4b	-0.053752225
239	0x3e20a0ab	0.1568629
240	0x3d1ea5dd	0.0387324
241	0xbdf2d025	-0.11856107
242	0xbdf834c3	-0.121194385
243	0xbeda6a0e	-0.42659038
244	0x3ccf3bd3	0.025297081
245	0x3e06a61b	0.13149302
246	0x3c6d958a	0.014500985
247	0xbd37f5f6	-0.0449123
248	0xbd75d383	-0.060016166
249	0xbd9f09ab	-0.07765516
250	0xbb6578ba	-0.0035014586
251	0xbd365343	-0.044513
252	0xbe4d57f2	-0.2005308
253	0xbd53af9b	-0.051681142
254	0x3d60b75b	0.05486236
255	0xbda36c24	-0.079796106

bias f4 [64]
0	0x3e018689	0.12648977
1	0xbd0a4630	-0.033758342
2	0xbd7acb85	-0.061229248
3	0x3e02fa0d	0.127907
4	0xbd94f5aa	-0.07273419
5	0xbbac4224	-0.005256908
6	0x3e331dc5	0.17491825
7	0xbd875406	-0.06607823
8	0xbcc256b9	-0.023722993
9	0xbd808394	-0.062750965
10	0x3d8bdf23	0.06829669
11	0xbd969645	-0.073528804
12	0x3dada881	0.08479405
13	0x3d27f552	0.04100544
14	0x3de1cf3b	0.11025854
15	0xbe20e8ea	-0.1571385
16	0x3dd8f5af	0.105937354
17	0x3dbfa769	0.09358103
18	0x3e343044	0.17596537
19	0x3dbd5ae6	0.09245853
20	0x3df17803	0.117904685
21	0xbc289e1b	-0.0102916015
22	0x3e02959d	0.12752385
23	0x3e45fa2a	0.19333711
24	0x3c68cffe	0.014209745
25	0xbd78c4fe	-0.06073474
26	0x3e02ccde	0.12773463
27	0xbd89a64f	-0.06721174
28	0x3e168551	0.14699294
29	0x3e14799d	0.14499517
30	0x3d086a2a	0.03330437
31	0x3d25f201	0.040513996
32	0x3ce1559e	0.027506646
33	0x3df076db	0.1174142
34	0x3dc1e2c9	0.09467084
35	0x3e0410d8	0.1289705
36	0xbd591084	-0.052994266
37	0xbd822b48	-0.063559115
38	0x3df10f82	0.11770536
39	0x3e11ad58	0.14226282
40	0xbd3a2942	-0.045449503
41	0x3c31ed95	0.010859867
42	0x3d6b719c	0.057481393
43	0xbd635998	-0.055505365
44	0xbd8c0732	-0.0683731
45	0x3a86d4a0	0.0010286756
46	0x3e613862	0.21994165
47	0x3bad3656	0.0052860184
48	0x3dd9f239	0.106419034
49	0x3d93201b	0.07183858
50	0xbd6e7727	-0.0582191
51	0x3d15cf41	0.036574606
52	0x3d2eea0d	0.042703677
53	0x3e2cbfff	0.16870116
54	0x3dccc011	0.09997571
55	0x3e4fc227	0.20288907
56	0x3d896d0d	0.06710253
57	0x3de4f315	0.11179177
58	0x3e05dbf8	0.13072193
59	0xbda80daa	-0.08205731
60	0xbd37dac4	-0.044886366
61	0x3d3c47eb	0.045967024
62	0x3e467ea5	0.19384249
63	0xbcbf6e71	-0.023368092

weight f4 [10, 64]
0	0x3e92babf	0.286581
1	0xbdcc8b50	-0.09987509
2	0x3c1aa89f	0.009439616
3	0x3e1cc10e	0.1530802
4	0xbe40b11e	-0.18817565
5	0x3e1d45b9	0.15358628
6	0x3f04cf17	0.51878494
7	0x3dd2bfa5	0.102904595
8	0x3df2c39e	0.11853717
9	0x3e1792e4	0.14802128
10	0xbe59701c	-0.21234173
11	0x3f509547	0.8147778
12	0xbe32e397	-0.17469631
13	0x3e243585	0.16036041
14	0xbeff7c38	-0.4989946
15	0x3ef68ee3	0.4815589
16	0x3f4e00d5	0.8047002
17	0xbe8a20b7	-0.26978084
18	0x3e571b5a	0.21006528
19	0xbe67c103	-0.22632222
20	0xbdceb0d4	-0.10092321
21	0xbecefb85	-0.4042627
22	0x3e14127f	0.1446018
23	0xbc82cbd5	-0.015966335
24	0x3da1d17f	0.07901286
25	0x3dc912eb	0.098180614
26	0x3b29023a	0.002578868
27	0x3b9bd2e9	0.004755367
28	0xbe8e82aa	-0.27834064
29	0x3d657ac1	0.05602527
30	0xbe7ead52	-0.24870804
31	0xbe8877a7	-0.26653787
32	0xbdf6d6dd	-0.12052701
33	0xbf2825f9	-0.6568294
34	0x3ec392de	0.38197988
35	0xbdb8b7bf	-0.09019422
36	0xbe137c84	-0.14402968
37	0x3f0fb9d6	0.5614294
38	0x3e9d6c6e	0.30746788
39	0x3ec14cdf	0.3775396
40	0x3d48ffb6	0.04907199
41	0x3ed2185d	0.41034213
42	0xbc258406	-0.010102278
43	0x3effac02	0.4993592
44	0xbd9b865b	-0.07593986
45	0xbd760ebf	-0.060072657
46	0xbf7fa433	-0.99859923
47	0xbd41ceab	-0.047316235
48	0xbeff89e9	-0.49909905
49	0xbed46d24	-0.41489518
50	0x3e12d992	0.14340809
51	0xbe974a2e	-0.29548782
52	0x3e3c2b6a	0.18375936
53	0xbe913953	-0.28364047
54	0xbe632045	-0.22180279
55	0xbe6f5070	-0.23370528
56	0xbec0bdc7	-0.3764479
57	0x3ea98bcf	0.33114478
58	0x3d6cd85e	0.05782353
59	0x3db6c4a1	0.08924223
60	0x3edfebae	0.43734497
61	0xbeadd8a7	-0.33954355
62	0x3ebf81df	0.3740377
63	0x3cb8fa73	0.022580361
64	0xbe7d641a	-0.24745217
65	0xbdc064b5	-0.09394208
66	0x3d45bfdc	0.048278674
67	0xbf1dbf64	-0.61620164
68	0xbddb1257	-0.106968574
69	0x3c55f516	0.013058921
70	0xbf228b4b	-0.63493794
71	0x3d72e959	0.05930457
72	0x3e5cbebd	0.21557136
73	0x3e019903	0.12656026
74	0xbdca32c8	-0.09872967
75	0xbd2dddca	-0.042447843
76	0xbe15357c	-0.14571184
77	0xbebb7642	-0.3661366
78	0x3f0f1279	0.5588756
79	0x3da1277e	0.07868861
80	0xbf2d3f87	-0.6767506
81	0xbdff9d06	-0.12481122
82	0xbe84043f	-0.2578449
83	0x3e095397	0.13410793
84	0x3f296677	0.66171974
85	0xbc056ea8	-0.008144058
86	0xbd42a187	-0.047517326
87	0xbcfbf13b	-0.030754676
88	0x39350707	0.00017264123
89	0xbcc558be	-0.024090167
90	0x3eb5c72f	0.35503528
91	0xbbd8f6e2	-0.0066212276
92	0x3e90d91a	0.28290635
93	0x3e8f7dcb	0.2802566
94	0xbed2f910	-0.41205645
95	0xbec9a633	-0.39384612
96	0x3d7ae70a	0.061255492
97	0x3e64dcd0	0.22349858
98	0xbe516fc9	-0.20452799
99	0x3ee902c7	0.4550993
100	0x3e83a0d1	0.2570863
101	0x3e2dcbf9	0.1697234
102	0xbea22d4f	-0.31675193
103	0x3d90ae6f	0.070645206
104	0x3eab98c3	0.33514985
105	0x3eae1d3a	0.34006673
106	0xbe7567b3	-0.2396534
107	0x3dc99c70	0.09844291
108	0xbd82f69a	-0.06394692
109	0x3e45dd05	0.19322594
110	0x3f8f7d9c	1.1210208
111	0x3ec6a444	0.387972
112	0xbf028bee	-0.50994766
113	0xbe87e9d3	-0.2654558
114	0xbd89713f	-0.06711053
115	0x3da89dda	0.08233233
116	0xbe88d6dd	-0.26726428
117	0xbcc15259	-0.023598837
118	0x3efe8384	0.49709713
119	0xbc64d219	-0.013966107
120	0xbefe3464	-0.49649346
121	0x3d2bfed9	0.04199109
122	0xbf191f85	-0.5981372
123	0xbdefcbf5	-0.117088236
124	0xbe76ae79	-0.24089994
125	0xbd173085	-0.036911506
126	0xbebc5075	-0.36780134
127	0xbdb5ae8b	-0.08871182
128	0x3e8b3005	0.27185073
129	0x3d1acfe1	0.037795905
130	0x3dacc487	0.08435922
131	0x3d9833f9	0.07431788
132	0x3e550fc8	0.20806801
133	0x3e0044be	0.12526223
134	0xbebd5aca	-0.3698333
135	0x3dda83a4	0.1066964
136	0xbe3fabac	-0.18717831
137	0xbd614ae7	-0.055003073
138	0xbe301de8	-0.17198908
139	0x3d92bc5f	0.07164835
140	0x3f1ae16e	0.6050023
141	0xbf06a3c7	-0.52593654
142	0xbea50aee	-0.322349
143	0x3f0c76ca	0.5486876
144	0x3f9659df	1.1746176
145	0xbe562b5b	-0.20914976
146	0xbe1283dc	-0.14308113
147	0xbd02c3fe	-0.031925194
148	0xbe40580a	-0.18783584
149	0x3f0c33eb	0.5476672
150	0xbec860ba	-0.39136297
151	0x3dc25d94	0.09490505
152	0xbeb46623	-0.35234174
153	0x3d668398	0.05627784
154	0x3e13a936	0.14420018
155	0x3da4d913	0.08049216
156	0xbee7ac83	-0.45248803
157	0x3e27734b	0.16352575
158	0xbe81e75a	-0.2537182
159	0x3f099516	0.5374311
160	0xbd948458	-0.07251805
161	0x3ee51a71	0.44746736
162	0x3f12ad18	0.5729537
163	0xbd59c94b	-0.053170484
164	0xbdf14e92	-0.11782564
165	0xbe24592a	-0.16049638
166	0xbe1e6771	-0.15469147
167	0x3da51e95	0.08062474
168	0x3f8320e3	1.0244411
169	0xbece1fad	-0.40258542
170	0x3d9603f6	0.07324974
171	0xbe9c2d20	-0.30503178
172	0x3cb60d7d	0.022223229
173	0x3e07705f	0.1322646
174	0xbe18800f	-0.148926
175	0xbe4a663e	-0.19765565
176	0xbe4dba17	-0.20090519
177	0x3e68401a	0.22680703
178	0xbc8c767c	-0.017146342
179	0x3d6b0f13	0.057387423
180	0xbd36ce64	-0.044630423
181	0xbeff220d	-0.49830666
182	0x3f4d8ca3	0.8029272
183	0xbe5318a4	-0.20614868
184	0x3ed341ed	0.41261235
185	0x3d1c3ea4	0.038145676
186	0xbdb47022	-0.0881045
187	0x3de22dff	0.11043929
188	0xbd84f7e5	-0.06492595
189	0xbe7b1165	-0.24518354
190	0xbf268356	-0.6504415
191	0x3c4a361c	0.012342002
192	0xbebf027a	-0.37306577
193	0x3f605e52	0.8764392
194	0x3e248689	0.16066946
195	0xbe488691	-0.19582583
196	0xbd2d12a9	-0.042254124
197	0xbda8631a	-0.08222027
198	0xbee7d7ee	-0.4528193
199	0x3cc38865	0.023868749
200	0xbe7e59f7	-0.24839006
201	0xbcc6deeb	-0.024276217
202	0xbec50094	-0.38477004
203	0x3d3fd79b	0.046836477
204	0xbe0e4ddf	-0.13896893
205	0x3e99fe37	0.30076763
206	0xbeb158c6	-0.3463804
207	0x3f296f6c	0.6618564
208	0xbe6e20b0	-0.23254657
209	0x3f2a8b44	0.6661875
210	0xbf01b359	-0.5066429
211	0x3f75f022	0.9606954
212	0xbf038b64	-0.5138457
213	0x3e0cc0a5	0.13745363
214	0x3cedd5f4	0.029032685
215	0xbe1150f0	-0.14191031
216	0x3dc83645	0.09775976
217	0x3dc214bd	0.09476612
218	0xbeaf950f	-0.3429341
219	0x3d1f66ad	0.03891628
220	0x3ed75959	0.42060354
221	0x3e1e41eb	0.15454833
222	0x3f17cdaf	0.59298223
223	0xbdaa593a	-0.083178
224	0xbddea570	-0.108713984
225	0x3ee76198	0.45191646
226	0xbeb0c937	-0.34528515
227	0xbed57903	-0.41693887
228	0x3e969ac3	0.2941495
229	0xbc2b1c3e	-0.010443745
230	0xbec0b9e9	-0.37641838
231	0xbe257afb	-0.16160195
232	0x3efa5562	0.48893267
233	0x3ebe6db3	0.3719307
234	0x3d8cda0e	0.06877528
235	0xbe8fd975	-0.28095594
236	0xbdf5926c	-0.119908184
237	0xbe1f831c	-0.15577358
238	0xbe8bf4c3	-0.27335176
239	0x3ef986cc	0.48735654
240	0x3f0cd587	0.55013317
241	0x3de99ff7	0.11407464
242	0x3dea8d04	0.11452678
243	0xbe3f8e36	-0.18706593
244	0xbdbeed6d	-0.09322629
245	0x3e6befdc	0.23040718
246	0xbf2cd468	-0.67511606
247	0xbe954ec1	-0.29161647
248	0xbe84f41b	-0.25967488
249	0xbef0b79a	-0.47015077
250	0x3ed84b24	0.42244828
251	0x3de3538e	0.11099921
252	0xbe161b9e	-0.14658973
253	0xbee0a5a8	-0.43876386
254	0xbee2554e	-0.44205707
255	0xbcbffbcf	-0.023435501

bias f4 [10]
0	0xbe01241f	-0.12611435
1	0x3e1250a8	0.1428858
2	0xbdd1795b	-0.10228225
3	0xbe09441c	-0.13404888
4	0x3db01478	0.08597654
5	0x3e218d39	0.15776528
6	0xbdd7b548	-0.105326235
7	0x3c0c483e	0.008562146
8	0xbdeded07	-0.11617475
9	0xbdb0fa70	-0.08641517
