db/model_weights.pth (torch, 440519 bytes, 6 tensors)

weight f4 [128, 784]
-0.008292633 0.0334417 -0.020317968 0.0148063395 0.0030731985 -0.019532673 0.013154064 -0.004175335
-0.014955027 0.0015852579 -0.022437114 0.034725767 -0.014105408 -0.013135779 0.009702782 -0.00097353494
0.020870661 -0.019985788 0.019743223 -0.013484785 0.008030913 -0.008044669 0.021431098 -0.017805142
0.017851932 0.013536978 0.02768922 -0.016471498 -0.028292423 0.012645275 -0.03211505 -0.02325345
0.035157405 0.01549809 0.028780023 -0.017584557 -0.024100568 0.01698957 -0.009346264 0.012945824
-0.03028594 -0.007377397 -0.031129135 -0.025831461 -0.0056529334 -0.0017818838 0.005402834 0.013260957
-0.027203219 -0.007939912 0.031119093 0.014291968 0.009677908 0.0032911259 0.021351399 -0.003256534
-0.034895744 0.023172593 -0.03263261 0.010575714 0.023239542 0.0065512205 -0.005562739 0.0014960177
0.015975453 -0.019896206 -0.009293852 0.0056439303 -0.033160202 -0.026032109 -0.0043203156 -0.041254338
0.011318345 -0.024521694 0.028271852 0.0064237416 -0.034468263 0.018191086 0.028253837 -0.037207298
0.028614646 0.03548281 0.009626227 0.00053408317 -0.029619044 -0.009651253 -0.03208995 0.027684422
0.0011064607 0.0014513374 -0.02885847 0.0365967 0.014364641 0.03942313 0.001398217 0.034784082
0.021018293 0.029916164 0.047158837 0.048750717 0.01307455 0.042357262 0.041673876 -0.016332686
0.012880372 0.00936211 0.002320434 0.009327504 0.029509373 0.012911248 -0.0150136 -0.027028417
-0.023555182 0.008078709 -0.018146718 -0.015666418 0.018936196 -0.020601729 -0.00036834102 -0.0025871033
0.037745815 0.04368703 0.00655005 0.05266865 0.053236615 -0.0016185961 -0.0015774735 0.052110724
0.021016827 0.045563668 -0.008548741 -0.029383464 -0.02860807 0.000173567 0.019901501 0.003178034
0.022401042 -0.019834671 0.031347953 0.026733035 -0.0032347443 0.02864498 0.0075565763 -0.021759106
-0.02258885 0.0035315226 -0.034042038 -0.005583436 -0.004829516 -0.029943729 0.030905394 -0.03510491
-0.03574987 -0.003996734 0.016265767 0.0051142504 0.029475914 0.044794463 0.04838679 -0.009773953
0.019673714 0.036249787 0.009010268 -0.00615705 0.0131908525 0.008843695 0.0067990273 0.017959177
0.02588345 -0.020205794 -0.020741718 0.01641239 0.03403869 0.017774615 0.0018584008 -0.022453928
0.008148901 -0.057582404 -0.03311201 -0.06431335 -0.011071639 0.011588864 0.00024324204 -0.035459034
0.0075432314 0.032660082 0.033910207 0.018536057 0.008061762 -0.014004473 0.035823103 -0.02052308
-0.007903619 0.030870127 -0.0066081956 0.0007263935 -0.03266951 0.0009291683 -0.0155304335 0.0014826762
0.023742542 0.022425523 0.014395025 0.0045197746 -0.026254646 -0.059841678 -0.03413872 -0.017388836
-0.059958097 0.0035741779 0.030685034 -0.0035207379 0.018752292 -0.012375709 0.029862598 -0.011242827
0.0072290865 0.0024502808 0.03624749 0.029899072 0.01495251 -0.005404332 -0.033861123 0.026723318
0.012561529 -0.020653099 0.01663636 -0.006163711 -0.026841557 0.023678286 -0.0016032016 -0.027975682
-0.047382485 -0.025502104 -0.00840113 -0.011116941 0.0070399004 0.019327216 0.005666318 -0.02532346
0.024787186 0.031210491 0.037099123 0.022995733 0.04857431 -0.020052481 0.03966526 -0.0019276607
-0.022660457 0.027732022 0.023818199 0.014181536 -0.022260651 0.02526124 0.027849589 -0.01101983
00000000: d3dd 07bc 2afa 083d de71 a6bc 4a96 723c
00000010: b767 493b fc02 a0bc 2584 573c 40d1 88bb
00000020: ee05 75bc 6ec8 cf3a 0ace b7bc 9b3c 0e3d
00000030: 5f1a 67bc 7337 57bc 6bf8 1e3c d334 7fba
00000040: f3f8 aa3c 3cb9 a3bc 8abc a13c 4aef 5cbc
00000050: 1794 033c cacd 03bc 4590 af3c 17dc 91bc
00000060: 373e 923c 33ca 5d3c 81d4 e23c 3cef 86bc
00000070: 83c5 e7bc 212e 4f3c 128b 03bd 057e bebc
00000080: 3601 103d b3eb 7d3c 15c4 eb3c 7d0d 90bc
00000090: 8e6e c5bc b62d 8b3c 1321 19bc b91a 543c
000000a0: 381a f8bc 17be f1bb 8702 ffbc 809c d3bc
000000b0: 3e3c b9bb 198e e9ba 420a b13b 7c44 593c
000000c0: 49d9 debc 6816 02bc 78ed fe3c dc28 6a3c
000000d0: 1790 1e3c eeaf 573b 21e9 ae3c 936b 55bb
000000e0: d7ee 0ebd 73d4 bd3c c6a9 05bd c245 2d3c
000000f0: da60 be3c 9fab d63b a347 b6bb 0616 c43a
00000100: f4de 823c 5efd a2bc 3e45 18bc b8f0 b83b
00000110: fed2 07bd 4a41 d5bc 6f91 8dbb 4ffa 28bd
00000120: 9470 393c b8e1 c8bc 5f9a e73c 407e d23b
00000130: 982e 0dbd 7905 953c 9774 e73c ae66 18bd
00000140: 4369 ea3c 6c56 113d 53b7 1d3c b701 0c3a
00000150: a3a3 f2bc 4a20 1ebc c070 03bd 71ca e23c
00000160: a906 913a cd3a be3a 9968 ecbc 6ce6 153d
00000170: ac59 6b3c 267a 213d 6144 b73a c179 0e3d
00000180: 8e2e ac3c be12 f53c a029 413d d5ae 473d
00000190: a336 563c cf7e 2d3d 3ab2 2a3d 20cc 85bc
000001a0: 3208 533c 8963 193c 6c12 183b 63d2 183c
000001b0: a4bd f13c b389 533c 9afb 75bc b36a ddbc
000001c0: ccf6 c0bc 905c 043c 6da8 94bc dc56 80bc
000001d0: 1520 9b3c f5c4 a8bc e51d c1b9 648c 29bb
000001e0: 5b9b 1a3d 2cf1 323d cda1 d63b 15bb 573d
000001f0: a30e 5a3d 1327 d4ba 3ac3 ceba 0e72 553d
00000200: 7b2b ac3c f8a0 3a3d 0510 0cbc 97b5 f0bc
00000210: 795b eabc 89ff 3539 7908 a33c 9046 503b
00000220: 6482 b73c 527c a2bc b666 003d 3dff da3c
00000230: 01fe 53bb e1a8 ea3c 289d f73b 2740 b2bc
00000240: 410c b9bc 1e71 673b aa6f 0bbd 42f5 b6bb
00000250: eb40 9ebb 8d4c f5bc 4f2d fd3c 2bca 0fbd
00000260: 756e 12bd 09f7 82bb c93f 853c 7195 a73b
00000270: 7977 f13c 667a 373d 3a31 463d ee22 20bc
00000280: c52a a13c a87a 143d ce9f 133c 14c1 c9bb
00000290: 721e 583c 25e5 103c 60ca de3b 201f 933c
000002a0: 8709 d43c 9f86 a5bc 89ea a9bc 4773 863c
000002b0: 276c 0b3d 129c 913c 9595 f33a 4df1 b7bc
000002c0: f882 053c 87db 6bbd 76a0 07bd b8b6 83bd
000002d0: d265 35bc 38df 3d3c ca0e 7f39 7e3d 11bd
000002e0: 362d f73b 94c6 053d 6ee5 0a3d eed8 973c
000002f0: 7b15 043c 0473 65bc 3fbb 123d 0520 a8bc
00000300: 2e7e 01bc 59e3 fc3c 9089 d8bb 716b 3e3a
00000310: 77d0 05bd 6e93 733a 5c73 7ebc 5c56 c23a
00000320: b87f c23c bbb5 b73c 1cd9 6b3c 9e1a 943b
00000330: fc13 d7bc 8c1c 75bd 0bd5 0bbd 0873 8ebc
00000340: 9f96 75bd c13c 6a3b 2e5f fb3c 2ebc 66bb
00000350: 689e 993c 7cc3 4abc 68a2 f43c d633 38bc
00000360: f9e1 ec3b e494 203b 4078 143d e6ee f43c
00000370: 5ffb 743c d316 b1bb f6b1 0abd dcea da3c
00000380: dfce 4d3c b030 a9bc fa48 883c f5f8 c9bb
00000390: d3e2 dbbc f7f8 c13c 8522 d2ba 422d e5bc
000003a0: 2314 42bd cae9 d0bc e5a4 09bc d523 36bc
000003b0: f7ae e63b 1c54 9e3c 85ac b93b 2573 cfbc
000003c0: 7f0e cb3c 25ad ff3c 40f5 173d 8c61 bc3c
000003d0: dbf5 463d 1a45 a4bc 0a78 223d 8fa9 fcba
000003e0: 6ca2 b9bc 442e e33c 621e c33c ac59 683c
000003f0: f85b b6bc a9f0 ce3c d224 e43c 848c 34bc

bias f4 [128]
-0.020736555 -0.01696881 -0.0033805578 -0.009529439 0.061328985 -0.019675238 0.022246657 0.06815268
-0.05541735 0.07301342 0.04438591 2.7002246e-05 -0.037643988 0.08899749 0.043306693 0.073280655
0.023952993 0.13797939 -0.010873386 0.029850151 0.11618705 0.036892 0.050061364 -0.009751362
0.028068418 0.10019624 0.058098402 -0.114530765 0.04882458 -0.007942584 -0.03499712 -0.043840233
0.02697401 0.017071113 -0.037849944 0.08757304 -0.035947785 0.025064453 -0.016338576 0.09251687
-0.07449348 -0.040134132 0.05881101 0.029156791 0.001889152 -0.07449901 0.11785952 0.022157848
0.025254302 -0.05257624 -0.028879713 0.04547909 0.06919769 0.006092554 0.1611765 0.0703409
0.054376654 0.0027514175 -0.00089357555 -0.051616736 0.014392747 0.0708985 0.018174551 -0.014712205
-0.010242738 0.067238435 0.0035893559 0.08331754 0.06384219 -0.072282895 -0.024754157 0.042196304
0.060080692 -0.13679816 0.008856037 0.04202233 -0.0458709 0.0105230175 0.0387044 -0.0073875836
0.012806583 0.111375265 -0.034261968 0.016251085 -0.033767402 -0.027090693 -0.023267854 -0.040333472
0.0077458294 0.021966627 0.025209824 -0.054705698 0.07010807 0.014710844 -0.019919952 0.11611825
0.08637903 -0.056473773 -0.0037839257 -0.07537308 0.016319266 -0.09368507 -0.013875644 0.08186335
0.11758671 0.08834843 -0.06114616 0.008239502 -0.029226957 -0.012528452 0.029821089 -0.0021734943
-0.022677865 -0.011526035 -0.07971887 0.040127683 -0.07679616 0.03125348 -0.04101233 0.031568393
-0.022015525 0.08466255 0.027598161 0.059525598 0.064241685 0.08169711 -0.094390675 0.101601124
00000000: b5df a9bc 2d02 8bbc 598c 5dbb 5d21 1cbc
00000010: 1a34 7b3d f72d a1bc 9f3e b63c a293 8b3d
00000020: 4efd 62bd 0f88 953d 00ce 353d e282 e237
00000030: 9530 1abd 5144 b63d 5c62 313d 2b14 963d
00000040: 1139 c43c 784a 0d3e 4926 32bc 4e88 f43c
00000050: 7af3 ed3d 111c 173d 250d 4d3d 2dc4 1fbc
00000060: bdef e53c b033 cd3d 97f8 6d3d 1b8f eabd
00000070: 48fc 473d 9d21 02bc 2459 0fbd d191 33bd
00000080: 99f8 dc3c b8d8 8b3c 8b08 1bbd 7e59 b33d
00000090: fc3d 13bd f853 cd3c 7ad8 85bc 7c79 bd3d
000000a0: 0a90 98bd b063 24bd d0e3 703d 39da ee3c
000000b0: 6c9d f73a f092 98bd 5560 f13d 6084 b53c
000000c0: 1ce2 ce3c 2f5a 57bd 2695 ecbc 4848 3a3d
000000d0: 85b7 8d3d 0ca4 c73b 740b 253e e40e 903d
000000e0: 0eba 5e3d 2051 343b d73e 6aba 126c 53bd
000000f0: 8ecf 6b3c 3c33 913d cce2 943c 760b 71bc
00000100: 28d1 27bc 4eb4 893d 663b 6b3b 63a2 aa3d
00000110: b2bf 823d 0e09 94bd 3bc9 cabc 08d6 2c3d
00000120: 2c17 763d d114 0cbe e918 113c 9b1f 2c3d
00000130: 20e3 3bbd bc68 2c3c 8188 1e3d 8b13 f2bb
00000140: b4d2 513c b718 e43d 4756 0cbd ff20 853c
00000150: b04f 0abd 4ded ddbc 3a9c bebc b634 25bd
00000160: bad0 fd3b 5bf3 b33c d584 ce3c 1513 60bd
00000170: d294 8f3d c005 713c 2b2f a3bc 68cf ed3d
00000180: 7de7 b03d 0b51 67bd bdfb 77bb 345d 9abd
00000190: fbaf 853c f5dd bfbd ab56 63bc f9a7 a73d
000001a0: 4dd1 f03d 06f0 b43d 6574 7abd fafe 063c
000001b0: 5f6d efbc 2344 4dbc 5b4b f43c 2f71 0ebb
000001c0: eec6 b9bc b2d7 3cbc a643 a3bd ed5c 243d
000001d0: 4e47 9dbd a603 003d 8cfc 27bd dc4d 013d
000001e0: e759 b4bc 8f63 ad3d 8a15 e23c 1dd1 733d
000001f0: 2591 833d d050 a73d e64f c1bd 4014 d03d

weight f4 [64, 128]
0.039758354 0.0041296864 -0.026157996 -0.038188566 -0.106726624 0.0045261593 0.13989452 0.13454616
-0.19703707 -0.16310161 -0.10727712 0.014294318 0.070238546 0.16443095 0.1634936 -0.056230713
0.01084211 0.12692311 0.012773293 -0.11980828 0.05786476 -0.023057036 -0.0131330155 0.031510007
0.15144585 0.015905306 0.12672795 -0.15528849 -0.021271976 0.09632662 0.004741601 0.0061385874
-0.116783105 0.05599798 0.030907562 -0.0911877 -0.100174844 0.028099358 -0.029992843 0.04405417
0.058518734 -0.029753821 0.09042812 -0.0020103534 -0.07640238 -0.111265555 0.16439955 0.08951398
0.015989255 -0.13932988 -0.018167697 0.15969819 -0.067187674 0.1228215 0.10101136 0.11945444
0.0061582844 0.027465573 0.125639 -0.1554274 -0.10560304 -0.0374543 -0.039768353 0.047956694
-0.07096991 -0.011787979 -0.22822203 -0.0030222437 0.1682852 -0.148816 0.0368649 0.18141387
0.046243943 -0.072462104 -0.08744048 -0.040443346 -0.070774175 0.017057922 -0.09339982 0.093593225
-0.033674914 -0.06406254 -0.10347463 -0.0011999679 0.065282285 0.1714294 -0.2004715 0.048341293
-0.09388494 0.024861285 0.029213643 0.026183696 -0.09644142 0.15748453 -0.068741016 0.1923171
-0.091209985 -0.12567471 -0.015549319 0.03157677 0.112367414 0.11078347 -0.18860793 0.17190754
-0.07737877 -0.091400236 0.09887547 0.013968279 -0.08268354 0.09469314 0.09154106 -0.10955122
-0.12215081 -0.012405123 -0.042971943 -0.0553446 -0.025264865 -0.15998715 0.026395755 0.18821076
-0.078091286 0.15589994 0.07407193 0.102060504 -0.05378337 -0.027553216 -0.15237032 0.07160539
0.10657908 -0.04787489 0.047818206 0.0032101471 0.10760968 0.052423984 -0.099823244 0.026952239
-0.15411927 0.08186874 -0.16129635 0.040064134 0.072775304 -0.013847674 -0.11141592 0.15800074
-0.02789466 0.005090675 -0.18062992 0.08318977 -0.111325614 0.10402282 0.070239104 0.020954978
-0.025113815 -0.009623856 0.059579644 0.18928835 0.04322382 0.0641599 0.10604054 0.099763915
-0.04432863 0.017078647 0.10085125 0.11671015 0.054913647 -0.063101135 0.2730798 0.018465005
0.07478034 -0.019615669 0.13256663 -0.019527249 0.125904 0.04263421 0.007905313 0.0059524947
-0.02734814 -0.015854605 -0.014174214 -0.06219281 0.15287295 0.0059557557 -0.11245317 -0.09777382
0.09050986 0.009753406 -0.10078317 0.06468547 0.14144476 -0.013826239 -0.08181464 -0.05291128
-0.07181133 0.0030628003 0.12005332 -0.18385248 -0.13690808 0.1408141 0.0636538 -0.1713992
0.02204205 0.139875 0.18024004 -0.025149824 -0.03789284 -0.21029563 0.11335694 -0.10674403
0.0067906957 0.057411786 -0.032236982 -0.08452894 0.014295782 -0.13995716 0.14365277 -0.06622881
0.078346856 0.15535247 0.07027014 -0.0017471474 -0.13888386 0.11361147 0.0869775 0.0934422
0.08000928 -0.13201042 -0.041034207 -0.10180879 0.0941657 0.103018925 -0.051916845 0.056746505
-0.0019388101 0.10201641 0.049893416 -0.06375072 -0.05475687 0.10190983 -0.060922086 0.08857007
0.039768886 -0.0793873 -0.09527861 -0.2552801 0.025297081 0.13151273 0.016330263 -0.0328907
-0.060390025 -0.07804223 -0.0023499818 -0.037815783 -0.17287596 -0.04657797 0.043335713 -0.06123405
00000000: a8d9 223d 5252 873b 4b49 d6bc 9d6b 1cbd
00000010: 7d93 dabd 2d50 943b 8240 0f3e 78c6 093e
00000020: 16c4 49be 1c04 27be 1bb4 dbbd b732 6a3c
00000030: 3ad9 8f3d 9660 283e de6a 273e 2d52 66bd
00000040: 1ba3 313c 22f8 013e 1347 513c 0b5e f5bd
00000050: 9903 6d3d 1ce2 bcbc dc2b 57bc a310 013d
00000060: 9f14 1b3e d84b 823c f9c4 013e f203 1fbe
00000070: 9142 aebc e446 c53d 6f5f 9b3b 3426 c93b
00000080: fb2b efbd 235e 653d db31 fd3c 9ec0 babd
00000090: 7828 cdbd a030 e63c 8db3 f5bc 2572 343d
000000a0: 57b1 6f3d 49be f3bc 6132 b93d 22c0 03bb
000000b0: da78 9cbd 32df e3bd 5b58 283e 1b53 b73d
000000c0: e6fb 823c 7eac 0ebe 6cd4 94bc ec87 233e
000000d0: b199 89bd d789 fb3d 0bdf ce3d 88a4 f43d
000000e0: 6fcb c93b 7bff e03c 83a7 003e 5c28 1fbe
000000f0: 6846 d8bd ae69 19bd 24e4 22bd 3d6e 443d
00000100: ac58 91bd 5e22 41bc 09b3 69be d610 46bb
00000110: f552 2c3e 3963 18be a6ff 163d 8fc4 393e
00000120: 4a6a 3d3d 0367 94bd ff13 b3bd eca7 25bd
00000130: 0df2 90bd 0ebd 8b3c 6848 bfbd cead bf3d
00000140: b5ee 09bd 3933 83bd 82ea d3bd 3e48 9dba
00000150: b8b2 853d 308b 2f3e 6748 4dbe 8501 463d
00000160: bf46 c0bd e5a9 cb3c 7351 ef3c 317f d63c
00000170: 1483 c5bd a043 213e 17c8 8cbd c6ee 443e
00000180: 4dcc babd dfb0 00be 92c2 7ebc a556 013d
00000190: e320 e63d 72e2 e23d 7022 41be 8808 303e
000001a0: c378 9ebd 0c30 bbbd 397f ca3d 35db 643c
000001b0: fd55 a9bd 7aee c13d e179 bb3d 645c e0bd
000001c0: 342a fabd db3e 4bbc 5903 30bd 05b1 62bd
000001d0: 43f8 cebc acd3 23be e93b d83c 52ba 403e
000001e0: 53ee 9fbd 3ca4 1f3e 06b3 973d 1905 d13d
000001f0: f34b 5cbd 48b7 e1bc f706 1cbe d9a5 923d
00000200: 2246 da3d 7618 44bd 06dd 433d 5561 523b
00000210: 7762 dc3d 88ba 563d 2170 ccbd f1ca dc3c
00000220: 71d1 1dbe ccaa a73d df2a 25be 4a1a 243d
00000230: 380b 953d 5be1 62bc 082e e4bd f2ca 213e
00000240: 5883 e4bc adcf a63b 0df7 38be 665f aa3d
00000250: affe e3bd eb09 d53d 85d9 8f3d c6a9 ab3c
00000260: 7dbb cdbc 61ad 1dbc c909 743d ced4 413e
00000270: 760b 313d 4466 833d c82b d93d 0651 cc3d
00000280: f091 35bd 85e8 8b3c 1a8b ce3d bb05 ef3d
00000290: 22ed 603d 2b3b 81bd 1ed1 8b3e ec43 973c
000002a0: 6f26 993d 0ab1 a0bc 8cbf 073e 9cf7 9fbc
000002b0: faec 003e 36a1 2e3d 4985 013c 250d c33b
000002c0: 3509 e0bc 84e1 81bc f63a 68bc e3bd 7ebd
000002d0: ba8a 1c3e 8028 c33b d94d e6bd a43d c8bd
000002e0: 3c5d b93d c0cc 1f3c 6867 cebd d179 843d
000002f0: e5d6 103e 7387 62bc 6f8e a7bd 80b9 58bd
00000300: d211 93bd 43b9 483b 84de f53d d343 3cbe
00000310: a231 0cbe 9231 103e ec5c 823d 4683 2fbe
00000320: 8791 b43c 643b 0f3e d890 383e 0107 cebc
00000330: 8635 1bbd bd57 57be af27 e83d 9d9c dabd
00000340: 7c84 de3b 9f28 6b3d ed0a 04bd 821d adbd
00000350: db38 6a3c ee50 0fbe b619 133e f8a2 87bd
00000360: 5174 a03d b814 1f3e cbe9 8f3d 8a00 e5ba
00000370: 9237 0ebe 21ad e83d 4221 b23d a05e bf3d
00000380: e8db a33d bd2d 07be 7c13 28bd 2081 d0bd
00000390: f2d9 c03d 96fb d23d c2a6 54bd 066f 683d
000003a0: ac1f feba fbed d03d 0a5d 4c3d bd8f 82bd
000003b0: bd48 60bd 1ab6 d03d 7089 79bd 3a64 b53d
000003c0: b3e4 223d cf95 a2bd 6f21 c3bd 13b4 82be
000003d0: d33b cf3c 46ab 063e 0bc7 853c 66b8 06bd
000003e0: 885b 77bd 9bd4 9fbd 2702 1abb b9e4 1abd
000003f0: 6506 31be 8bc8 3ebd ca80 313d 8ed0 7abd

bias f4 [64]
0.10505922 -0.031735685 -0.07180003 0.10077243 -0.086832464 -0.0109593505 0.08872145 -0.067975566
-0.020451458 -0.07639876 0.01982817 -0.03756537 0.09344906 0.032253437 0.10258348 -0.15136112
0.04839713 0.040197123 0.1868051 0.08887079 0.106549315 -0.010279249 0.09916181 0.19469754
-0.03656176 -0.07271256 0.15953518 -0.06473871 0.16200258 0.108655296 0.051545773 0.05034707
0.023929063 0.0974405 0.07922254 0.12969275 -0.053399205 -0.04555668 0.049375273 0.15503585
-0.046961952 0.027199399 0.06652351 -0.083331354 -0.06983784 -0.02296148 0.21727137 -0.00045509983
0.08086649 0.04269705 -0.07251446 0.05252599 0.005152966 0.16761574 0.08895656 0.210266
-0.0067781876 0.14276312 0.087460525 -0.082224675 -0.048441734 0.05769998 0.1395847 -0.015353185
00000000: 4a29 d73d 47fd 01bd e50b 93bd c761 ce3d
00000010: 38d5 b1bd d98e 33bc 97b3 b53d c636 8bbd
00000020: d189 a7bc f476 9cbd b06e a23c 25de 19bd
00000030: 3962 bf3d 2e1c 043d 4a17 d23d 69fe 1abe
00000040: 123c 463d bda5 243d d649 3f3e e401 b63d
00000050: 8736 da3d 4c6a 28bc 5915 cb3d cb5e 473e
00000060: c9c1 15bd 53ea 94bd 315d 233e bb95 84bd
00000070: 01e4 253e ab86 de3d a921 533d bb38 4e3d
00000080: e206 c43c e38e c73d 6d3f a23d 2dce 043e
00000090: 20b9 5abd a499 3abd ba3d 4a3d b8c1 1e3e
000000a0: 2d5b 40bd 46d1 de3c 7a3d 883d a1a9 aabd
000000b0: 2407 8fbd b719 bcbc 637c 5e3e 779a eeb9
000000c0: 559d a53d 1ae3 2e3d 7682 94bd 7e25 573d
000000d0: 36da a83b 76a3 2b3e db2e b63d f84f 573e
000000e0: 8f1b debb 7f30 123e 811e b33d 6965 a8bd
000000f0: d76a 46bd d056 6c3d 4bef 0e3e ed8b 7bbc

weight f4 [10, 64]
0.2948577 -0.07910428 -0.0127501385 0.14099152 -0.09844539 0.11728509 0.4288817 0.11710673
0.11626117 0.08938328 -0.21014811 0.63028556 -0.17736255 0.1323429 -0.33728662 0.53070617
0.51546615 -0.2541421 0.05843288 -0.13197766 -0.10407784 -0.33929467 0.11351585 -0.05670559
-0.018195458 0.010302909 -0.042744234 0.005038449 -0.27660996 0.09775011 -0.22030595 -0.26433775
-0.082636364 -0.6261858 0.1754593 -0.09340951 -0.12078877 0.48609856 0.09992285 0.25538558
-0.0048403055 0.23961204 -0.047126457 0.44340467 -0.052935585 -0.08698727 -0.76049656 -0.060454126
-0.45484188 -0.3341644 0.022331228 -0.17295028 0.14105761 -0.27693725 -0.2035774 -0.2341584
-0.33841422 0.2779451 -0.020272357 0.090342216 0.40176535 -0.2897372 0.3182273 0.045777295
-0.24442299 -0.06021939 0.032294396 -0.39620852 -0.047387123 0.0032544273 -0.52214 0.06355469
0.21709256 0.005969706 -0.008658763 -0.024256624 -0.10962736 -0.40449375 0.41409683 0.11989329
-0.5717537 -0.13530855 -0.21483319 0.26111192 0.532108 -0.048253898 -0.06956588 -0.10526937
-0.013752728 -0.030534951 0.3723369 -0.0077018742 0.31271282 0.22604606 -0.29746252 -0.39461702
0.007652444 0.19022459 -0.1841914 0.31345254 0.12771033 0.15847954 -0.24801406 0.12307166
0.19137451 0.27330333 -0.2267486 0.058186475 -0.065466955 0.14325175 0.93669474 0.37238342
-0.4197714 -0.18079568 -0.024593482 0.13783179 -0.24640478 0.026176983 0.51715547 -0.014955926
-0.41076913 -0.09657225 -0.44044623 -0.12059333 -0.2573667 -0.112709776 -0.34938174 -0.08633296
0.2661118 0.040819835 0.06600938 0.089858174 0.12639944 0.1039416 -0.3596236 0.10401435
-0.18742129 -0.0392768 -0.2022851 0.07842943 0.57762754 -0.44967687 -0.25838318 0.56105787
1.0212859 -0.22990997 -0.025101736 -0.021519482 -0.13757071 0.4831677 -0.3007909 0.14700964
-0.26025537 0.11446722 0.15065485 0.08047183 -0.4646435 0.10980103 -0.26809773 0.5406369
-0.036968775 0.387281 0.53656304 -0.03045169 -0.12464677 -0.10820049 -0.087407745 0.10528215
0.868318 -0.3125065 0.07790126 -0.19464573 0.0004068861 0.12712666 -0.12483184 -0.16421093
-0.09861886 0.164644 0.05229096 0.03378176 -0.10429584 -0.46661 0.76434135 -0.20962226
0.2664983 0.0020979415 -0.076926656 0.105652936 -0.052238278 -0.12520088 -0.5915191 -0.0054009734
-0.346754 0.763073 0.13522668 -0.19057816 -0.030869095 -0.05488148 -0.4287066 0.01264649
-0.24871561 0.018466352 -0.30182353 0.10645364 -0.15040854 0.2561465 -0.25900903 0.565765
-0.17843007 0.53565913 -0.35011023 0.86945534 -0.47129133 0.14306378 0.025775308 -0.1632953
-0.021299038 0.05573497 -0.3435313 0.039844092 0.39009875 0.1569474 0.5254631 -0.07206777
-0.025627019 0.44886038 -0.2814326 -0.38097546 0.2054021 -0.00607714 -0.3877366 -0.09906849
0.465799 0.3626702 0.0985238 -0.30263668 -0.1135803 -0.16819124 -0.16001107 0.49038982
0.43426815 0.15423292 0.120938115 -0.13472472 -0.1083292 0.19882299 -0.6807411 -0.2752662
-0.28033045 -0.4002313 0.3310842 0.10908247 -0.17559591 -0.35076156 -0.42918473 -0.038373023
00000000: 97f7 963e 6d01 a2bd f5e5 50bc 1560 103e
00000010: bd9d c9bd 2a33 f03d 6296 db3e a7d5 ef3d
00000020: 561a ee3d 950e b73d 1131 57be 655a 213f
00000030: 879e 35be e684 073e d5b0 acbe 5cdc 073f
00000040: 97f5 033f ea1e 82be 5157 6f3d 2725 07be
00000050: c326 d5bd 08b8 adbe ff7a e83d 1f44 68bd
00000060: a40e 95bc 88cd 283c 9414 2fbd 9319 a53b
00000070: d29f 8dbe 3631 c83d e297 61be 4757 87be
00000080: 413d a9bd b64d 20bf 9aab 333e 7c4d bfbd
00000090: 1a60 f7bd e9e1 f83e 5aa4 cc3d e6c1 823e
000000a0: 6d9b 9ebb dc5c 753e ac07 41bd f005 e33e
000000b0: fcd2 58bd 6226 b2bd e7af 42bf bf9e 77bd
000000c0: 09e1 e8be 9917 abbe fbef b63c e119 31be
000000d0: 6871 103e b8ca 8dbe 9876 50be 38c7 6fbe
000000e0: a144 adbe d24e 8e3e 3712 a6bc 5705 b93d
000000f0: 30b4 cd3e 6f58 94be b0ee a23e f980 3b3d
00000100: 054a 7abe 9ba8 76bd 2147 043d d8db cabe
00000110: 0019 42bd 3b48 553b f8aa 05bf f628 823d
00000120: 834d 5e3e 869d c33b 7cdd 0dbc d4b5 c6bc
00000130: 4f84 e0bd ce19 cfbe 8004 d43e 9d8a f53d
00000140: 735e 12bf 538e 0abe 3bfd 5bbe 76b0 853e
00000150: 3b38 083f e1a5 45bd 8e78 8ebd 7897 d7bd
00000160: 1f53 61bc 6f24 fabc f1a2 be3e 0160 fcbb
00000170: e51b a03e 9e78 673e 024d 98be 3e0b cabe
00000180: 5ac1 fa3b 3cca 423e ac9c 3cbe da7c a03e
00000190: 7fc6 023e 7648 223e 66f7 7dbe ff0c fc3d
000001a0: aef7 433e 6aee 8b3e c930 68be f154 6e3d
000001b0: 8a13 86bd 96b0 123e 3acb 6f3f 0aa9 be3e
000001c0: 47ec d6be 8122 39be 4578 c9bc c723 0d3e
000001d0: 8951 7cbe 1d71 d63c 4d64 043f b309 75bc
000001e0: 5550 d2be acc7 c5bd 2b82 e1be a3f9 f6bd
000001f0: 91c5 83be 62d4 e6bd 2ae2 b2be 56cf b0bd
00000200: ce3f 883e b332 273d ed2f 873d 9007 b83d
00000210: db6e 013e 55df d43d 9620 b8be 7a05 d53d
00000220: 5eeb 3fbe b6e0 20bd d323 4fbe 9c9f a03d
00000230: 66df 133f 0c3c e6be cd4a 84be 7da1 0f3f
00000240: 7fb9 823f 856d 6bbe 28a2 cdbc a049 b0bc
00000250: 56df 0cbe c261 f73e 4401 9abe b289 163e
00000260: 3140 85be ca6d ea3d 4445 1a3e 6ace a43d
00000270: c1e5 edbe 5ddf e03d 1b44 89be 2e67 0a3f
00000280: 926c 17bd b249 c63e 325c 093f d375 f9bc
00000290: ce46 ffbd 3898 ddbd d502 b3bd 2b9e d73d
000002a0: 174a 5e3f da00 a0be b28a 9f3d 3651 47be
000002b0: 5453 d539 7e2d 023e d6a7 ffbd e926 28be
000002c0: aff8 c9bd 7098 283e 0c2f 563d be5e 0a3d
000002d0: 0f99 d5bd 82e7 eebe e0ab 433f 38a7 56be
000002e0: 7772 883e 9e7d 093b b98b 9dbd 9160 d83d
000002f0: cef7 55bd a934 00be cc6d 17bf a6fa b0bb
00000300: be89 b1be c158 433f dd78 0a3e ec26 43be
00000310: 2fe1 fcbc 67cb 60bd 6e7f dbbe 3933 4f3c
00000320: 4eaf 7ebe bf46 973c 9d88 9abe 5e04 da3d
00000330: b204 1abe a225 833e d59c 84be fad5 103f
00000340: 5fb6 36be f520 093f a641 b3be a094 5e3f
00000350: 194d f1be 507f 123e bd26 d33c e236 27be
00000360: 527b aebc 5a4a 643d 56e3 afbe 8f33 233d
00000370: 06bb c73e d2b6 203e c084 063f 4498 93bd
00000380: c1ef d1bc 07d1 e53e ef17 90be 370f c3be
00000390: ee54 523e bf22 c7bb 6985 c6be 6ce4 cabd
000003a0: 357d ee3e e9af b93e d9c6 c93d 32f3 9abe
000003b0: ca9c e8bd 533a 2cbe f1d9 23be 6014 fb3e
000003c0: 6558 de3e 3cef 1d3e 67ae f73d 47f5 09be
000003d0: b3db ddbd 4198 4b3e 0c45 2ebf b1ef 8cbe
000003e0: 7987 8fbe 1eeb ccbe de83 a93e a166 df3d
000003f0: 6acf 33be 0597 b3be 1abe dbbe 082d 1dbd

bias f4 [10]
-0.18543664 0.17952918 -0.08957384 -0.12769286 0.038095098 0.19598243 -0.090460956 0.059320237
-0.20247357 -0.052459884
00000000: 1ae3 3dbe 7fd6 373e 7d72 b7bd ebc1 02be
00000010: 9b09 1c3d 9eaf 483e 9843 b9bd c7f9 723d
00000020: 3b55 4fbe 2de0 56bd
